app/model_dql.pth (torch, 21421 bytes, 6 tensors)

fc1.weight f4 [64, 4]
000000 0e 3d 06 bd c2 fa 81 3e 07 bf be 3e b4 66 ac 3e
       -0.03277307 0.25386626 0.37255117 0.33672106
000010 32 c8 96 be a0 79 aa bd 00 df 7d bd 3a c4 9a be
       -0.29449612 -0.083239794 -0.061980247 -0.30227834
000020 78 d2 70 be 20 48 80 bc 8c d7 7f 3e c0 dc f8 3e
       -0.23517787 -0.015659392 0.24984568 0.4860592
000030 90 53 bb 3d ac 46 2f be 68 4e c1 bd a4 5f 44 be
       0.09146798 -0.17116803 -0.09438783 -0.19177109
000040 ea 3f c9 be 01 bf fa 3e 25 e2 b1 3d e4 b7 00 3e
       -0.39306575 0.4897385 0.08685712 0.12570149
000050 1c 27 e6 3e 1e ec cc 3e 1d 6d 9d be ad 52 22 be
       0.44951713 0.40023893 -0.3074731 -0.15851851
000060 19 dc 8c 3e 63 52 16 be 86 97 a8 be af dc 24 3e
       0.2751167 -0.14679866 -0.32928103 0.16099809
000070 4d 40 2e be 14 1a d4 3e 18 92 cf bc fe 79 92 3e
       -0.17016716 0.41426146 -0.025338218 0.28608698
000080 d2 be 3e 3e 45 a3 e5 3d c4 40 79 3e 1a ea 8f 3e
       0.1862748 0.11212782 0.24341112 0.28108293
000090 bf 34 a5 3d 5d 79 56 3e 59 c0 d9 be b1 02 9a 3e
       0.08066701 0.20944734 -0.42529562 0.30080178
0000a0 09 6f 05 3e 3a b5 cc 3e b1 84 ce 3e 81 cf 80 3d
       0.13030638 0.39982015 0.4033561 0.06289578
0000b0 de 69 9f be 36 ae 97 be 64 63 3b 3e be 2b b2 3e
       -0.31135458 -0.296251 0.18299633 0.34798998
0000c0 74 39 24 be 38 3d 39 be 28 81 99 3d 38 b2 d7 3d
       -0.16037542 -0.1808976 0.07495338 0.105320394
0000d0 41 28 9b 3d 7c 07 24 3e 7f 55 fb 3e d6 1b 9c be
       0.07576037 0.1601848 0.49088666 -0.30489987
0000e0 b5 a5 f2 3d dd 07 54 3e 03 55 00 bf 0f 73 aa be
       0.11848012 0.20706125 -0.5012972 -0.33290908
0000f0 78 d2 e3 be 14 f5 b4 3e 92 bd a8 be 40 67 62 bc
       -0.44496512 0.3534323 -0.3295713 -0.013818562
000100 b6 5e 16 3e 38 56 c6 3d 11 9c 54 bd 51 7a 1f be
       0.14684567 0.09684414 -0.05190665 -0.15574004
000110 08 50 ec bd a0 4e 19 be e8 74 43 3e 76 42 de 3e
       -0.11538702 -0.149714 0.19087565 0.4341008
000120 e8 d2 6d be 08 51 46 be 80 0c 40 3d 9a 4c df 3e
       -0.23224986 -0.19366848 0.04688692 0.4361313
000130 38 fd 4e 3e 67 dc bd 3e 93 33 10 be 0a 82 82 3c
       0.20213783 0.37082216 -0.14082174 0.015931148
000140 ef 60 4e be 17 c0 24 3e 36 f9 4b 3e c5 b0 f3 3e
       -0.20154165 0.16088901 0.19919285 0.47595802
000150 40 a1 cf bd 1c 68 50 be 52 98 8f 3e a8 e1 19 be
       -0.10138178 -0.20352215 0.280459 -0.15027487
000160 d8 4f 22 3e 0b 00 f3 3d 05 3d fd be 16 cf 7b 3e
       0.1585077 0.118652426 -0.49460617 0.24590716
000170 70 ed 12 3e 6e c5 d5 be a0 77 3e 3e 96 18 97 3e
       0.14348388 -0.4175219 0.18600321 0.29510945
000180 e1 89 a1 3d b2 04 3d 3e 06 f4 df 3e a4 37 a2 be
       0.078876264 0.18458822 0.43740863 -0.31683075
000190 20 83 c7 bc 7c 2b c7 be 1c 67 8f be d8 db c6 be
       -0.024354517 -0.38900363 -0.28008354 -0.38839602
0001a0 78 6b df 3d 86 57 9b be 64 1b 62 3e 28 a2 71 be
       0.1090917 -0.30340213 0.22080761 -0.23597014
0001b0 46 20 e2 be c0 b3 b0 3e fe e4 90 be c0 92 62 3c
       -0.44165248 0.34512138 -0.28299707 0.013828933
0001c0 72 1e 95 be cd 90 a3 3e 70 08 b5 3c 99 ff 9e be
       -0.2912479 0.31946412 0.02209875 -0.3105438
0001d0 7b 56 8c bd 2d df 96 3e 9f f0 ca 3e 89 5b d9 3e
       -0.06852432 0.29467145 0.39636704 0.42452648
0001e0 c6 c9 e8 be c8 30 e2 bd 90 aa 02 be 50 68 72 3e
       -0.4546644 -0.110444605 -0.12760377 0.23672605
0001f0 58 47 da be 18 e6 d2 3d 60 bf 58 3e d0 89 15 bd
       -0.42632556 0.10297793 0.21166754 -0.03650838
000200 d0 25 9d be 40 0e b4 be e0 07 e0 bd d0 6d 4b 3e
       -0.3069291 -0.35167122 -0.10939002 0.19866109
000210 d0 95 ab be cc 48 6a 3e 00 d7 93 bb 38 c0 a8 bd
       -0.33512735 0.22879332 -0.004511714 -0.08239788
000220 8c 63 d1 be 98 9d 91 bd d2 ae 9a be 38 22 03 be
       -0.4089626 -0.07110137 -0.30211502 -0.12806022
000230 d3 e7 80 3e c4 1b cd 3e f2 bd d9 3e d1 59 0a be
       0.25176868 0.40060246 0.4252773 -0.13510825
000240 e8 30 6e be fc 0f fc be ec 15 37 be d4 93 92 be
       -0.23260844 -0.49230945 -0.17879456 -0.2862841
000250 3d d8 3b 3e b5 93 57 be a8 01 25 be 2d 00 54 3e
       0.18344207 -0.2105244 -0.16113913 0.20703192
000260 f4 c1 ea be 6e 99 9c 3e da 28 b0 be 58 ac 01 3e
       -0.458511 0.30585808 -0.34406167 0.126634
000270 7a dd cd be b0 8e 1f be 38 b1 45 3e c6 ad 99 3e
       -0.40208036 -0.15581775 0.19305885 0.3001539
000280 c5 64 0b 3e 54 69 f6 3d 63 b2 55 3e ee 37 8a 3e
       0.1361266 0.120318085 0.2086883 0.26995796
000290 be 66 99 be 80 15 c4 3c 9e 78 e3 be b4 c8 69 be
       -0.299612 0.023936033 -0.4442796 -0.22830468
0002a0 17 76 68 3e 48 eb cf bc f3 40 00 3e 38 e5 9c be
       0.22701298 -0.025380746 0.12524776 -0.3064363
0002b0 f5 77 f7 3e 7a b6 49 3d 90 01 13 be 36 60 a9 be
       0.48333707 0.04924629 -0.14356065 -0.33081216
0002c0 0d 35 c8 3d 17 66 cd 3e 3f 82 31 bd e1 85 c2 be
       0.09775744 0.4011695 -0.043337103 -0.37992766
0002d0 df 08 a4 3e 83 f8 a7 be 14 be 67 3e 94 23 2b 3e
       0.32038018 -0.32806787 0.22631103 0.1671279
0002e0 8f 94 3b 3e db 39 31 be f2 bb 97 be c3 47 ac 3e
       0.1831839 -0.17307226 -0.29635578 0.336485
0002f0 b0 db 9b bd d0 36 7c 3d 06 38 ef be de d2 b0 be
       -0.076102614 0.06157571 -0.4672243 -0.3453588
000300 58 07 bc be 48 84 ae 3d 4a e5 c2 3e 70 1b fb 3d
       -0.36724353 0.085213244 0.3806556 0.12261093
000310 18 03 e8 be e8 90 2f be 78 1e b3 3d 70 23 d9 bd
       -0.4531486 -0.17145121 0.08746046 -0.10602462
000320 71 35 db 3d 78 b3 de 3d de a0 52 be 68 da c0 3e
       0.107035525 0.10874075 -0.20569178 0.3766663
000330 38 47 8d 3e 0d 5d 7e 3e 77 a7 6c be 2d fb e7 be
       0.27593398 0.24840184 -0.23110758 -0.4530882
000340 37 92 e6 be 4f 8c f4 3e a8 2c f4 3e e6 dc a1 be
       -0.45033428 0.47763297 0.4769032 -0.31613845
000350 40 b3 18 3d 7a 5b c6 3e 87 9d 6c be ce 41 68 be
       0.03728032 0.38741666 -0.23106967 -0.22681352
000360 36 97 df be 3a 29 af 3e 2a d2 c7 be 64 94 8b be
       -0.43670052 0.3421114 -0.3902753 -0.2726165
000370 28 54 1d be f0 e2 0d bd 20 a6 e0 bc 30 2c b6 3d
       -0.15364134 -0.034640253 -0.027422965 0.08895147
000380 b4 59 bf be 54 27 44 3e e4 d1 58 be a0 45 88 3d
       -0.37373126 0.19155627 -0.21173817 0.06653905
000390 86 d2 e1 3e 21 ab 07 3e fd 25 32 3c 41 bb 63 3e
       0.4410593 0.13248874 0.010873315 0.222394
0003a0 c2 48 59 3d cf 53 8a bd 77 e4 75 3d f8 04 94 3e
       0.053047903 -0.067542665 0.060032334 0.2891004
0003b0 b6 3d ad be 24 19 ae be fc 3b 57 3e a4 65 d9 3e
       -0.33836144 -0.34003556 0.21018976 0.42460358
0003c0 ce 81 36 3e 19 53 b3 3e 9b 9c e8 3e 7c dd 8b bd
       0.17822954 0.35024336 0.4543198 -0.06829354
0003d0 6a 38 71 bd 09 e1 35 3e fb e4 d7 be 3a 3d 70 be
       -0.05889169 0.17761625 -0.42166886 -0.23460856
0003e0 5c 97 a6 3c 81 f6 ce bc 14 10 1a 3e 10 f9 a9 be
       0.020335846 -0.025264027 0.15045196 -0.33197832
0003f0 2e 1c 9b be 80 88 89 3b 56 0d a0 3e 80 aa 7c be
       -0.30294937 0.0041971803 0.31260175 -0.24674416

fc1.bias f4 [64]
000000 70 c3 5d 3d 44 c8 dc 3e 04 51 ec 3e a0 cf e6 bd
       0.05414146 0.4312154 0.4615556 -0.1127007
000010 2e 0f 90 3a 76 3d ea be 08 69 58 bd b1 1c af be
       0.0010990852 -0.45750016 -0.05283454 -0.34201577
000020 81 13 de be fa bf 5d be b6 ad c6 3e 10 7e 7c 3d
       -0.43374255 -0.21655264 0.38804406 0.06164366
000030 d8 e7 d6 3d 3d a8 8d 3e e4 3f e6 bd f4 dc 3d 3e
       0.104934394 0.27667418 -0.11242655 0.18541318
000040 fd c8 a9 be c8 cc f1 bd 40 a1 9d 3c 31 5c a5 3e
       -0.33161154 -0.11806637 0.019241929 0.322969
000050 71 f4 00 bf c0 af 71 3c 65 9e 5c 3e d0 77 09 3e
       -0.5037299 0.014751375 0.21544798 0.13424611
000060 89 8c 5d be b4 f0 11 3e 54 98 dd be 36 b6 d3 be
       -0.21635641 0.14251977 -0.4328028 -0.41349953
000070 41 fd bc 3e c2 82 df 3e d0 87 5d 3d 40 bb b5 bc
       0.36911967 0.43654448 0.0540846 -0.022184014
000080 3a b4 ac be d4 72 19 be 64 17 db be 5d 36 f6 be
       -0.33731252 -0.1498521 -0.42791283 -0.4808835
000090 30 52 fa bd ce 34 e3 bc 98 d7 54 be 12 d3 eb be
       -0.12222707 -0.02773514 -0.20785367 -0.4605947
0000a0 b1 b9 5f 3e 9c f4 bc 3e c3 17 4d bd b8 73 a2 3d
       0.2184818 0.36905372 -0.05007149 0.07932228
0000b0 16 05 60 3d 5a eb 85 3e e5 48 14 bc 9e 8b 8f 3e
       0.05469235 0.26156121 -0.009050583 0.28036207
0000c0 c8 7b 9e 3e b0 c5 a3 be 84 ab f5 3e 5d 77 27 3e
       0.30953813 -0.3198676 0.4798242 0.16354127
0000d0 b2 3e 86 bc 4c 77 58 be 90 c6 40 3d b4 17 d5 3e
       -0.016387317 -0.21139258 0.047064364 0.41619647
0000e0 d0 16 9a be 45 40 5d 3e 77 bc a5 3d c4 aa ee 3e
       -0.3009553 0.21606548 0.080925874 0.4661466
0000f0 2c 62 ee 3e 2f b6 c4 bc f7 56 30 be 6e bd ee be
       0.46559274 -0.024012653 -0.17220674 -0.46628898

fc2.weight f4 [64, 64]
000000 00 dd 2b 3d 68 f6 d8 3d fc e3 4d bd 00 0f f4 3b
       0.04195881 0.10593873 -0.05026625 0.007448077
000010 f6 e3 be 3d 10 5d 4a bc 3e 35 dc 3d cc 71 fb bd
       0.09320824 -0.012351289 0.10752343 -0.122775644
000020 ec 19 2a bd 46 28 c0 bd 58 7f f4 bd e0 39 a7 3b
       -0.041528627 -0.093826815 -0.119383514 0.005103335
000030 00 07 83 bb 6a fe be bd d0 5f b3 bc 6c 64 0f 3d
       -0.003998637 -0.093258694 -0.021896273 0.03500788
000040 fa c2 c0 bd e8 95 53 bd 12 c3 ed 3d e8 ac 7c bd
       -0.09412189 -0.051656634 0.11609472 -0.061688334
000050 62 8d ed 3d 70 34 d5 3c 50 c1 a8 bd b8 a1 93 bc
       0.11599232 0.02602598 -0.082399964 -0.01802145
000060 c0 07 e3 bc b4 51 65 bd 5c 33 96 bd 14 2a 9e bd
       -0.027713656 -0.05598612 -0.07334015 -0.077228695
000070 14 30 dd bd a6 4b b4 3d a0 c3 87 3d a4 2c e4 3d
       -0.10800186 0.08803491 0.066291094 0.11141327
000080 60 3a f5 bb d6 9c 9d bd 5c 06 cc bd 96 eb e0 bd
       -0.0074837655 -0.0769593 -0.099621505 -0.109824345
000090 30 92 6d 3c 68 7b 30 3d 00 5b a9 ba c4 90 44 bd
       0.014500186 0.04308644 -0.0012920797 -0.04798962
0000a0 dc 60 a7 bd cc 6a b4 3d 1c cd 5d 3d 78 77 71 bd
       -0.08172771 0.088094324 0.054150686 -0.058951825
0000b0 ac 0f 63 bd e0 be 09 bd 30 bb 07 3c 5c 1b 9b bd
       -0.055434868 -0.0336293 0.008284375 -0.07573578
0000c0 20 46 c2 bd 30 6d ef 3c 96 3d 9d 3d 40 45 9e 3c
       -0.094860315 0.02922687 0.07677762 0.01932013
0000d0 b0 06 9d 3c a0 8a c1 3b c0 85 5f bd 10 8f 8b 3c
       0.019168228 0.005906418 -0.054570913 0.017035991
0000e0 14 2c 5d 3d 8c 2d b1 bd a4 da 06 3d f4 81 67 3d
       0.053997114 -0.086512655 0.032923356 0.056520417
0000f0 70 67 d8 bd 52 93 f4 bd e8 40 74 bd 7e ce dd bd
       -0.10566604 -0.119421616 -0.059632212 -0.10830401
000100 00 d6 50 3d 92 fe b2 bd b0 21 0c 3d f8 40 93 bc
       0.050985336 -0.08739962 0.034211814 -0.017975315
000110 68 cb eb 3c 08 c2 ce bc e4 c5 08 3d 00 d8 7d 39
       0.028783515 -0.025239006 0.03339185 0.00024208426
000120 fa 0b dc 3d 36 4e ae bd 82 5b 99 bd 10 14 5f 3c
       0.10744472 -0.08511011 -0.07488157 0.013615623
000130 48 4a 75 bd c0 5a 35 3b 7e 3f d2 3d 40 bd 01 3d
       -0.059885293 0.00276725 0.102660164 0.031674623
000140 48 ca d3 bd d0 cc 36 bc 78 33 2f 3d f6 cb ef bd
       -0.103413165 -0.01115723 0.042773694 -0.11708824
000150 e0 ed 5f 3c 18 7d 88 3d a0 96 a5 3c 76 3d af 3d
       0.013667554 0.06664485 0.020213425 0.085566446
000160 0e 51 ae bd 90 bb 99 bd 34 61 ca 3d 84 45 7f 3d
       -0.08511554 -0.07506478 0.09881821 0.062322155
000170 ee 34 97 3d c4 f6 6e 3d 22 bf b2 bd e0 c5 83 bd
       0.073831424 0.058340803 -0.08727862 -0.06434226
000180 28 c3 39 bd 5c 82 6a 3d 74 56 cb bd d0 62 e9 3d
       -0.04535213 0.057253227 -0.09928599 0.113958
000190 88 73 ec 3c b0 e4 79 bc 7c f0 79 bd 22 41 a0 3d
       0.028863683 -0.015252277 -0.06102036 0.07824923
0001a0 d8 82 c1 3d 04 91 67 bd 7c 66 a5 3d 80 59 99 3c
       0.094487846 -0.056534782 0.08076188 0.018719435
0001b0 20 2a cd 3b 98 0a 93 bd 40 9c cb bd dc 7b 9e 3d
       0.006261125 -0.07179755 -0.09941912 0.07738468
0001c0 7e c1 cc bd 20 42 2f bc c0 95 e0 3d 38 29 5e bd
       -0.09997843 -0.010696918 0.109660625 -0.054238528
0001d0 a0 cd 45 bd 60 2c df 3c 4c c6 e3 bd f0 5d cc 3c
       -0.048291802 0.02724284 -0.111218065 0.024947137
0001e0 e0 a6 ed 3b 78 fc b8 bd 54 04 f3 3d ec 66 2f 3d
       0.007252559 -0.090325296 0.1186606 0.042822763
0001f0 34 b9 b2 bd 1c c4 ba 3d 78 30 c8 3d 9c 7d 63 3d
       -0.08726731 0.09119436 0.0977487 0.055539712
000200 d4 fb 44 3d 4e 3d ef bd 0c 2a ed bd 20 68 2f 3d
       0.048091725 -0.11681615 -0.115802854 0.04282391
000210 60 6b 85 bb 3c 43 d3 bd a4 17 33 bd 92 b3 80 bd
       -0.004071638 -0.10315558 -0.043723717 -0.0628425
000220 a0 21 c8 3d 1c 5f d3 3d 30 ef fd 3d 28 71 fa bc
       0.097720385 0.10320875 0.12399137 -0.030571535
000230 fc 61 ce bd b4 41 c8 bd 88 f5 8f 3c 80 53 a1 3c
       -0.10077283 -0.09778157 0.017573133 0.019693136
000240 60 f4 2f bd 14 19 61 3d 70 c5 0b bd e0 e2 0b bc
       -0.042957664 0.054955557 -0.034123838 -0.008537978
000250 a0 4e b5 3d 34 e8 65 3d 7c 47 8d bd 88 64 f4 bd
       0.08852887 0.05612965 -0.068984 -0.11933237
000260 40 34 87 bd 4e 11 dd bd fe c8 90 3d fc 44 9c 3d
       -0.06601763 -0.10794316 0.07069586 0.07630345
000270 96 91 be bd 46 fd d3 bd dc 81 63 3d b2 a7 f7 bd
       -0.09305112 -0.103510424 0.055543765 -0.12092532
000280 d4 70 0f 3d 04 45 20 3d fa ae a6 bd 3a 70 c5 bd
       0.03501971 0.03912832 -0.08138843 -0.09640546
000290 80 75 f1 bc 70 ae 56 bd 00 15 1b bc e8 c2 fa 3c
       -0.029474974 -0.05241245 -0.009465456 0.030610517
0002a0 16 5f dc 3d 24 aa e5 3d 78 21 6a 3d 4c 74 37 bd
       0.10760324 0.112140924 0.057160825 -0.044788644
0002b0 10 41 4f bd c2 00 e4 3d d0 4e 1c 3c b8 d1 45 3d
       -0.050599158 0.11132957 0.009540275 0.048295707
0002c0 ce 4d f0 3d ae 1b 99 3d 90 b2 c7 3c 20 b3 d4 bc
       0.1173359 0.074759826 0.024377137 -0.02596432
0002d0 76 fd ec bd 40 d6 91 3b 1a 70 e8 bd 5c 52 7c 3d
       -0.11571781 0.0044505894 -0.11349507 0.06160198
0002e0 74 c9 32 bd 84 61 32 bd b0 1f 61 3c 1e 2e c1 3d
       -0.043649152 -0.04355003 0.013740465 0.09432624
0002f0 92 db f8 bd ec 1a 60 bd 14 69 67 bd fc 9c 25 bd
       -0.12151255 -0.054713175 -0.056496695 -0.040432915
000300 36 67 f5 bd 06 fd f1 3d e0 de 8a bc 78 43 93 3c
       -0.119825765 0.118158385 -0.016951978 0.017976508
000310 3c 28 e0 bd 6c c9 c5 bd e4 cf 0c bd 48 0c 54 bd
       -0.10945174 -0.09657559 -0.034377947 -0.051769525
000320 50 1b d2 3c bc 70 36 3d c0 3b 01 bc 88 20 ea 3d
       0.02564779 0.044541106 -0.007887781 0.11431986
000330 b2 48 8f 3d 88 c9 b6 bc 42 da 91 3d a8 2c ca bd
       0.069962874 -0.022312894 0.071217075 -0.09871799
000340 d0 f1 4d bd f4 65 da bd 80 19 61 bc 54 e7 31 bd
       -0.05027944 -0.10663977 -0.01373899 -0.043433502
000350 8a 21 9d 3d 5c ef 68 bd d8 e8 a7 3c 80 dc 48 3c
       0.07672413 -0.056868896 0.02049677 0.012259603
000360 98 1d ce 3d 6c 71 05 3d fc 3a 05 bd 42 2a 82 bd
       0.10064238 0.03257887 -0.032526955 -0.06355716
000370 08 7c ac 3d d4 43 d8 3d 60 67 b1 3d 4c 83 7b bd
       0.084220946 0.10559812 0.08662295 -0.06140451
000380 e2 28 9b 3d a2 fb af 3d d8 34 8b 3d 56 14 c7 3d
       0.07576157 0.08592917 0.067971885 0.09720676
000390 b0 61 94 bd 60 44 b6 3d a0 46 f6 3d 74 2f df bd
       -0.07245195 0.0889976 0.120251894 -0.10897723
0003a0 aa 80 e2 3d 96 3c 83 3d 80 98 3a bb 48 10 db 3c
       0.11059697 0.0640804 -0.0028472245 0.026741162
0003b0 d0 fc 7f bc 90 75 ad bc b0 dd 3c bc 1c b6 ef 3d
       -0.01562424 -0.021174222 -0.011527464 0.117046565
0003c0 60 4b c1 3b 30 61 d1 3d f4 4e 97 bd 44 b0 7b 3d
       0.005898878 0.10223615 -0.07388106 0.061447397
0003d0 88 39 83 bc e8 9a c0 bd d8 21 9f bd b6 a6 bf 3d
       -0.016018644 -0.09404546 -0.07770127 0.093579695
0003e0 88 5e 85 3d 00 0f b0 ba 2c 87 36 3d 20 ab 2a 3c
       0.06512171 -0.0013432205 0.044562504 0.010416776
0003f0 34 6e 5d bd c2 3b ec 3d d0 bc ad bc be b5 a8 3d
       -0.054060176 0.115348354 -0.021208197 0.082377896

fc2.bias f4 [64]
000000 8c 34 e8 bd 7c cf df 3d 44 33 c3 3d b6 34 ad bd
       -0.113381475 0.109282464 0.095312625 -0.084573194
000010 9c 2c ca bd 26 16 bc 3d 86 b3 86 bd 00 1d 55 bc
       -0.0987179 0.09183912 -0.0657721 -0.013007402
000020 d5 91 91 3d e2 8a f0 3d c0 a7 9a 3b 08 37 f0 bd
       0.071078934 0.1174524 0.0047197044 -0.117292464
000030 b4 7b 73 bd 30 86 2c bc 08 2a df 3d 45 67 73 3d
       -0.059444144 -0.01053004 0.10896689 0.059424657
000040 9c 87 39 3d 76 4b ec bd a6 17 ee bd 38 fb 3d 3d
       0.045295343 -0.115378305 -0.11625604 0.04638216
000050 08 b6 91 bc 50 72 1d bd 08 2c 64 3d 9c 43 7d bc
       -0.017786995 -0.038439095 0.055706054 -0.015458014
000060 75 10 e8 bd 72 86 f1 bd 7a 48 b9 bd 96 8b d0 bd
       -0.11331264 -0.117932215 -0.09047027 -0.10182874
000070 c0 fe 72 bc 9c 85 5e 3d 01 94 9b 3d a0 c7 c5 bd
       -0.014831245 0.05432664 0.07596589 -0.09657216
000080 8f c2 1e bd ca 0a f8 bd 54 cb 36 bd 19 e8 4c 3d
       -0.038759764 -0.12111433 -0.044627503 0.050026033
000090 70 f8 12 bd bf 7d 1c 3d ba ce c6 3d 7c 3d 0a 3d
       -0.03588146 0.03820586 0.09707399 0.033750042
0000a0 ee f6 e5 bd e8 55 91 3d a4 56 29 bd 60 87 7a 3c
       -0.11228739 0.070964634 -0.041342393 0.015291065
0000b0 0c 49 98 3d 4c fb ff bd 3c b0 d2 3d 2e b2 56 3d
       0.074358076 -0.12499103 0.1028752 0.05241602
0000c0 3f 05 53 bd 24 b5 83 bc 27 e2 e1 3d 82 73 4c 3d
       -0.051518675 -0.016077586 0.11029463 0.049914844
0000d0 96 dc 81 3d 34 8f 5f bd 60 47 be 3b 48 0b c0 bc
       0.063409016 -0.05457993 0.0058068484 -0.02344288
0000e0 d3 05 96 bd 03 91 37 3d 00 60 a8 39 75 a6 0a bd
       -0.0732533 0.04481603 0.00032114983 -0.033850152
0000f0 54 c1 65 bd 1f 89 98 bd ce a9 ec bd 96 4e a5 bd
       -0.056092575 -0.07448029 -0.11555825 -0.0807163

fc3.weight f4 [2, 64]
000000 b6 1e 8f bd 10 78 f3 bc 4c 4f a1 3d fc 2d 90 bd
       -0.069882795 -0.029720336 0.07876453 -0.07040021
000010 b0 7f 2b bc 48 39 f7 3c 61 8a be ba a0 db 48 bc
       -0.010467455 0.030178681 -0.001453709 -0.012259394
000020 c6 a2 1d 3c a0 4d c1 3d a0 8e a2 3d a2 0b b9 bd
       0.009621328 0.09438634 0.0793736 -0.09035422
000030 38 ab e3 3c 58 e4 af 3c 12 89 f7 3d 26 07 01 bd
       0.027791604 0.021471187 0.12086691 -0.031500958
000040 6a 62 74 bd d2 97 d2 bd b0 67 bd 3c b4 9d e1 bd
       -0.059664167 -0.10282864 0.023120731 -0.110164076
000050 70 be 4f 3c 34 5d 16 3d 76 a7 c5 3d bf 11 42 bd
       0.012679681 0.03670998 0.09651081 -0.047380205
000060 f9 e3 4a 3d fd 00 ae bd 62 ff c1 3d a0 ef 43 3d
       0.049533818 -0.08496282 0.094725385 0.047835946
000070 d8 c3 08 bd d8 9b d4 3c 56 a5 07 3c 30 df 35 3c
       -0.033389896 0.025953218 0.008279165 0.011100575
000080 e8 23 2d 3d 13 47 d3 3d 24 7e ea 3c ee cc c2 ba
       0.04227057 0.10316291 0.028624602 -0.0014862099
000090 68 7c b9 bd 9e fc 7b bd 4d c2 c2 bd 98 16 bc bd
       -0.09056932 -0.06152021 -0.09509716 -0.09183997
0000a0 80 4c d8 bb d9 62 d0 3d d8 ba 49 3d 6c e6 3d 3c
       -0.0066009164 0.10175104 0.049250454 0.011590581
0000b0 c8 86 8e bc d4 f2 dd 3d b8 62 47 3d e4 85 f8 bc
       -0.017398253 0.108373314 0.04867813 -0.030337282
0000c0 91 c8 0c 3b ea 34 e2 3d 64 e1 61 bd a6 5b 2d 3d
       0.0021481852 0.11045249 -0.05514659 0.04232373
0000d0 28 bf bb 3c bd 9a 97 bd fc 6d 40 bd 6e 8a cd 3d
       0.022918299 -0.07402561 -0.04697989 0.10036169
0000e0 06 7b bd bd c6 3a 2e bd 2c cd 3a 3d 07 aa 26 bd
       -0.092519805 -0.04253652 0.045605823 -0.040689494
0000f0 0f ab fe 3b 63 dc da bd 90 9d 30 3d 54 ae 01 bd
       0.0077718566 -0.10686567 0.043119013 -0.031660393
000100 40 02 80 bc ba de a9 bd 44 0a 00 3d 40 ff 3e bc
       -0.015626073 -0.08294435 0.03125979 -0.011657536
000110 2c 2f 40 3d 64 21 57 bd 26 75 78 3d dc 28 e4 bd
       0.046919987 -0.05252208 0.060658596 -0.11140606
000120 90 81 e6 bd 26 d8 f8 bd a0 70 89 3d 40 2b e8 3b
       -0.11255181 -0.12150602 0.06710935 0.007085234
000130 68 6c 2a 3d 1e 54 81 bd 84 95 b2 3d 96 57 be bc
       0.04160729 -0.06314872 0.08719924 -0.023235124
000140 f9 7e 72 bd f4 a2 11 bd 98 4a eb bc 80 8d 29 bc
       -0.05920312 -0.035555795 -0.028722093 -0.010348678
000150 f2 5c cc 3d 84 85 27 bd 40 6c c9 3b d2 a6 a5 bd
       0.099786654 -0.040898815 0.0061469376 -0.08088459
000160 42 f7 b9 bd bd 8b d9 3d ae bf bc 3d 78 ab c0 3d
       -0.09080364 0.10622356 0.092162475 0.09407705
000170 38 d5 2e 3d a4 ce 23 bd 6b 14 c0 3d 7c af bb 3d
       0.04268381 -0.03999199 0.093788944 0.0916433
000180 33 64 16 3d 56 70 c1 3c 01 ee 80 3c 22 99 e3 bd
       0.03671665 0.023613136 0.01573849 -0.11113192
000190 96 81 9c bd 9d 7e 90 3d c3 e7 a0 3d a4 c8 37 3d
       -0.07641904 0.070553996 0.07856705 0.04486908
0001a0 9a e0 a2 3d e6 d5 9e bc f8 e8 36 bd 73 35 0e 3b
       0.079529956 -0.019389104 -0.04465577 0.0021699339
0001b0 b6 cb e4 3d 44 ad 64 3d 62 da d0 3d ae 47 af bd
       0.11171667 0.0558293 0.10197903 -0.08558594
0001c0 42 d3 fb bc 01 15 89 3d 84 c8 91 bd 73 ba b9 bd
       -0.030740384 0.06693459 -0.071183234 -0.090687655
0001d0 6c 7b 1a bd e9 ce 9e 3d 20 e6 b7 bc 00 4a 3b 3c
       -0.03771536 0.07754309 -0.0224486 0.011431217
0001e0 d2 2f eb bc 6c 0e ad 3b b8 2a 63 3d 07 cf 22 3d
       -0.028709326 0.0052812602 0.05546066 0.039748218
0001f0 cb 1b e7 3d b2 d4 5e 3d a6 e0 ba 3d 08 38 c2 3c
       0.11284598 0.05440206 0.091248795 0.023708358

fc3.bias f4 [2]
000000 e8 8f 95 3c 9a 3b ed 3d
       0.018257096 0.11583634
